generator.pth (torch, 418264 bytes, 7 tensors)

conv1.weight f4 [64, 1, 3, 3]
00000000: 52a9 ca3c c32e 0d3e 2388 703e 29b7 27be
00000010: 2b27 423e b378 823e 9e0c 87be d318 773c
00000020: 0acc 9d3e 44a1 8e3e 6643 adbe dd25 ae3e
00000030: 3b40 6bbe 18f6 d4bb c9a1 a2bd b2a6 f1bd
00000040: bda4 15be 6a7e abbd 6214 69be f825 91be
00000050: 6195 95be b0df 88bd ef45 843d 1812 93be
00000060: f1db ae3d b818 12be 7a53 6d3e 704a 8dbe
00000070: 2d92 5bbe b678 9cbe dd1b 3abe 226f 0f3e
00000080: a999 4bbe 7fe0 ff3d 6915 8abe 5db9 803e
00000090: a884 a93d 7b23 35be 2c93 06be 4f06 c83d
000000a0: efb0 17be 3f9c 6b3e 8c57 a3be 99df 46bc
000000b0: 1c5c a5be 4224 8c3d 4b15 3f3e 8ffc a1be
000000c0: 630c a9be 734f 113e 84be 333d 369a 1f3e
000000d0: 7106 a73e ae7c 91bd 3424 ae3e 9415 38be
000000e0: 7560 3cbe 29b1 473e c593 943e f538 eb3d
000000f0: f9ae 813e 72f5 1c3e eafa 473c 6732 5bbe
00000100: eddc c43c 049b 42bd 6198 39be d705 64be
00000110: 186a ce3d 7f3a 00be 7ee0 893e 50db a13e
00000120: 0d2a 13be 1813 a5bc a907 623e def5 2c3e
00000130: 3780 05be 5bf7 f63d 4406 bd3d b4a6 763e
00000140: 0621 ab3e 2f3c 23be ac08 ac3e cc60 8bbe
00000150: a85a 7d3c d5ed 6dbe 11f6 a0be 518b afbd
00000160: efc5 51be 6949 a73e a488 a03e dfcb 9a3e
00000170: 6bea 963e ae0e abbe 0c37 533e efe2 ac3d
00000180: e062 27be a192 a0bd b1e5 7b3e 5dc0 263e
00000190: a7df 14bd 6d94 8d3e 5fdc 2f3d 1510 a13e
000001a0: af81 853e 3ec8 72bb 6f52 383e 9e5d 4abe
000001b0: cc96 75be 4c9c 0b3e 7597 82be e592 99be
000001c0: 34d0 043d 3cbb bebc 8edb e7bd 425c 1ebe
000001d0: 5839 8b3d a485 7c3d 2b01 953d 7a5d 30be
000001e0: 586f 153e 3073 613e ff95 25be eb4f 9fbe
000001f0: 29ba f73c 35f8 c03d 97ab 33be 3c84 c1bd
00000200: c522 c03d 4bad 773d 0b97 95be 0486 383e
00000210: edc9 3fbe 833b 263e 517b 013d b7f5 573e
00000220: 254d 1b3e f0cf 42be a8fe e0bd 66b1 92be
00000230: 923e e2bd 656f a43e f9d5 78be ff6f a43e
00000240: 78a2 04be 0d0b 5cbd cca7 12bd 6aeb 83be
00000250: 4b9c 463d dd39 043e 72f1 a8be a79e bd3d
00000260: 29fe 0f3e 90ca 6a3e 04ca 2abd 8d56 373d
00000270: 5202 0dbe 7b21 1e3e 1fa2 81be ec3a 0fbe
00000280: 282b cd3c e30c 15bd 93c5 5a3e a06a 8fbe
00000290: f047 20bd e769 f6bd f2a6 3ebe befa eebd
000002a0: bec6 88bd 3eae 8f3e daaa 4f3d 3039 a9be
000002b0: b4ec 76be ccc7 9bbe 698c 37be 30eb 083d
000002c0: d444 5b3c 131c adbe 8336 9dbe eca9 88be
000002d0: a305 aebe 0512 9abe 1dc5 073d 2f84 0bbe
000002e0: 027e 983e bb6f d9bd f5d9 5bbe 69f4 963e
000002f0: 676a 793e fca4 90be 5050 51be de05 32be
00000300: 6057 edbd ffea 54be cdd9 11be 21e8 03be
00000310: 4e31 88bd f054 75be d932 4d3e e9fb a5be
00000320: cee1 2a3e ae7a 143e 1209 ec3d 5c8d 763e
00000330: 7b1d 3b3d e9e0 bb3d 2b9f 10be 69b3 82be
00000340: 4418 25be 8457 923e a2f6 10be b451 88be
00000350: dc70 933d f7fc 5e3e 00d1 92be 0ba7 893e
00000360: c083 913e 694a 3abe b962 0fbe 09a1 2f3e
00000370: 8d5a e3bc 6835 d2bd e438 e0bd 31ce 9dbe
00000380: 5b46 853c ad14 693e 999e 643e 4aca 92be
00000390: 7099 883e 12f8 933e dc10 6a3e 0353 febd
000003a0: 6453 943e fa38 3d3e bb88 163e 25c9 a23e
000003b0: f1a4 a6bc 876c 8c3e 22c4 453d b54f c63d
000003c0: 1006 333e 8434 25be 084a db3d 6a1a 4c3e
000003d0: a742 2e3e 8017 233e 458f 953e 8503 103e
000003e0: 8d17 b83d 5321 8d3e 626d c9bd 77f9 053e
000003f0: 5f2e fc3d 6833 bbbd 34ab aebc 8e0b a4be
0.024738941 0.1378737 0.23489432 -0.16378464 0.18960254 0.2548271 -0.26376814 0.015081602
0.30819732 0.2785741 -0.33840483 0.34013262 -0.2297372 -0.006499063 -0.07941014 -0.11799373
-0.14613624 -0.08373721 -0.22761682 -0.2834928 -0.2921553 -0.0668329 0.06458651 -0.28724742
0.08538044 -0.14267242 0.23176375 -0.27595854 -0.2144248 -0.30560845 -0.18174691 0.14007238
-0.19882835 0.12493991 -0.2696946 0.2514142 0.08277255 -0.17689316 -0.13142079 0.09766828
-0.14813589 0.23008822 -0.3190273 -0.012138271 -0.32296836 0.06842853 0.18660466 -0.31638
-0.33017263 0.14190464 0.04388286 0.1558617 0.32622102 -0.07103859 0.34011996 -0.17976981
-0.1839617 0.19501175 0.2901899 0.11485473 0.25328806 0.15328005 0.012205819 -0.21405946
0.024031127 -0.047511116 -0.18124534 -0.22267853 0.100788295 -0.12522314 0.26929086 0.31612635
-0.1437151 -0.020150706 0.22073235 0.16890666 -0.13037191 0.12058898 0.09229711 0.2408703
0.33423632 -0.15940927 0.33600366 -0.27222288 0.015463509 -0.23235257 -0.31437734 -0.08571494
-0.20485662 0.32673195 0.3135425 0.30233666 0.29475722 -0.33409637 0.20626467 0.08441722
-0.16346312 -0.07840467 0.24599339 0.16284318 -0.036346104 0.27652302 0.04293477 0.31457582
0.26075503 -0.0037045623 0.18000196 -0.19762275 -0.23983306 0.13633841 -0.25506178 -0.29994884
0.03242512 -0.02328264 -0.113211736 -0.15464881 0.06798047 0.061650887 0.072756134 -0.17223158
0.14593256 0.22016597 -0.161705 -0.3111566 0.030240135 0.09422342 -0.17545925 -0.0944905
0.09381632 0.060468 -0.292168 0.18019873 -0.18729372 0.1623364 0.031611744 0.21089827
0.15166147 -0.19024634 -0.10986072 -0.2865097 -0.110470906 0.32116237 -0.24300374 0.32116696
-0.12952602 -0.053721476 -0.035804555 -0.25765544 0.048488896 0.12912698 -0.32996708 0.09258776
0.14061798 0.22928834 -0.041696563 0.044760276 -0.13770416 0.1544246 -0.25319 -0.1398732
0.025044993 -0.036389243 0.21364431 -0.28011036 -0.039131105 -0.12031918 -0.18618372 -0.11668919
-0.06678532 0.28062624 0.050700046 -0.33051443 -0.24113733 -0.3042587 -0.17924656 0.033427417
0.013383109 -0.3381048 -0.30705652 -0.2669214 -0.33988675 -0.30091873 0.033146966 -0.13624643
0.29783636 -0.10617014 -0.21469863 0.29483345 0.24356996 -0.28250873 -0.20440793 -0.1738505
-0.11588931 -0.20792769 -0.1424324 -0.12881519 -0.06650029 -0.23958182 0.20038928 -0.32418755
0.166877 0.14499924 0.115251675 0.24077362 0.04568241 0.091737576 -0.14123218 -0.25527504
-0.16122538 0.28582394 -0.14156583 -0.26624835 0.071992606 0.21776186 -0.2867508 0.26885256
0.2842083 -0.18192448 -0.14002503 0.17151274 -0.027753139 -0.10264093 -0.10948351 -0.30821374
0.0162689 0.22761793 0.22326125 -0.2866996 0.26679564 0.289002 0.22857994 -0.12418177
0.28969872 0.18478766 0.14700596 0.31794086 -0.020342322 0.2742655 0.04828275 0.09683172
0.17482781 -0.16133314 0.1070748 0.19931951 0.17017613 0.15926933 0.29210868 0.14063843
0.08988867 0.27564487 -0.09835316 0.13083445 0.12313532 -0.09140664 -0.02132187 -0.32040066

conv1.bias f4 [64]
00000000: 2877 663e e521 71be 7af1 82be 045c 13bd
00000010: 3d62 283e c913 90bd e90a 1f3e ebca d7bd
00000020: e2fe 953e 596f 193e 3394 323e 0837 5fbe
00000030: 7bcc 7e3e 3ab0 973e 946d 913e d33a 643e
00000040: 64f8 93be 67a4 273d c47e 9ebe 2454 7d3e
00000050: aea8 993e a5bb 7b3c 3328 92be 989d 6e3d
00000060: a765 8ebe b44d 4abe f2c5 8abd 2846 9dbd
00000070: b0f8 4e3e f089 64bd a899 2cbc 4aa6 5c3d
00000080: 6d46 40be f846 933e a5bb 853e a09d ce3b
00000090: 7ad8 e5bd fa4c 06be c445 a13e 5ae0 90bb
000000a0: c288 1b3d c0a9 1dbe 39b4 55be 57eb 8cbe
000000b0: 3ef8 17be d9ca 183e cd5c 1f3e de67 94be
000000c0: 0d32 783e 4694 a73e 3c72 883d fae0 7d3e
000000d0: c049 bbbc 5694 14be c909 823e 0bfd 2fbe
000000e0: 2db8 10be df7e 8d3e 0819 8cbe 3eac 4d3e
000000f0: 0c84 d33d 6b9d 823e 684c 11bd 8ad9 003e
0.22506392 -0.23548086 -0.25574857 -0.035976425 0.16443725 -0.07035024 0.15531506 -0.105367504
0.29296023 0.14983882 0.17439346 -0.21798337 0.2488269 0.29626638 0.28403914 0.22288065
-0.28900445 0.04092827 -0.3095609 0.24739128 0.30011505 0.015364562 -0.28546295 0.05825576
-0.2781193 -0.19756204 -0.06776036 -0.07679397 0.20212054 -0.05579561 -0.010534681 0.053869523
-0.18776865 0.28765082 0.26119724 0.0063054115 -0.1122293 -0.13115302 0.3149854 -0.004421276
0.03797222 -0.15396786 -0.2086953 -0.275233 -0.1484079 0.1492113 0.15562744 -0.28985494
0.24237843 0.3273031 0.066624135 0.24792853 -0.022862315 -0.1450971 0.2539809 -0.17186372
-0.14132757 0.27635857 -0.27362847 0.20085236 0.1032792 0.25510725 -0.035473257 0.12582985

conv2.weight f4 [64, 64, 3, 3]
00000000: 374b 0a3c 56b4 92bb d0a6 333d 38e1 333c
00000010: b889 843b d749 ca3c 21c1 e6bc 7a60 b53c
00000020: af27 cdbc f0eb 853c 22a0 55bc 0a97 82bc
00000030: 58e7 c33c 06d8 ed3c 02d4 ad39 d937 da3c
00000040: 5e7c e23c 39f5 ccbc 0892 ae3c b6a9 18bb
00000050: 627d cd3b 9d17 8ebc b366 b43c 23f7 78bb
00000060: 0949 dbbc f37d 1cbc 5024 503c b40b 103c
00000070: bde2 bd3c 8623 a4bc e92f 34bc 3c8a 703b
00000080: 60c7 8fbc cf68 8fbb ca40 84bc 1a97 33bc
00000090: 7429 7dbb fd75 c2bc be9f 9ebc d3c2 babc
000000a0: 9b96 7dbb aa98 90bc 30b6 123a c3dd 75bb
000000b0: 4406 91bc 3ec9 0e3c fd0d be3b fed2 04bd
000000c0: 4a15 43bc 923e 39bb 153a f3bc d050 45bc
000000d0: 48f4 eb3c 3d18 2bbb 5793 2ebb 5a24 90bc
000000e0: 7434 6bbc aad9 97bb 73ac 4d3d dccc 0b3c
000000f0: 800c 9dbc 205a bbbc a392 bd3c 63d2 363d
00000100: 2431 c53b 876b 0bbd c86c 5d3c 037e 9b3c
00000110: 4514 d33b d8fa 00bd 943b 2d3d db07 1ebb
00000120: f4cd ce3c 5d39 433d ca5e c6bc 555b fcbb
00000130: 3bd8 88bc 53a8 493d 54eb f4bc bd86 353b
00000140: 1a75 5abc 5341 253b 1943 a23b 23cd 0d3d
00000150: f5d8 a9bc 4602 473d 575b 343d d04b 93bb
00000160: 800a 563c 8566 8ebc a855 20bc 33f1 11bc
00000170: 79d3 cc3c 9ff5 7dba a374 2b3d b940 1a3d
00000180: 892b 08ba e429 e5bc d857 e6bc 4c04 56bc
00000190: 775a 213b d084 db3c 883f 463d 3410 373d
000001a0: 781e 90bc 0e79 bebc e1d7 c53c 9b8d ac3c
000001b0: 1723 423c 2fe0 b4bc 56a1 423c 21a9 a8bb
000001c0: e56c 1e3d aeb4 59bc 2690 c5bc 1863 91bc
000001d0: 2e7d f7bc 082a 463d caa3 ef3b ed1a 2d3d
000001e0: 17b9 cabc dab6 b63c 7089 623c 1de1 c7bc
000001f0: caac b73c 825e b1bc dec5 e13c 3f4b c43c
00000200: 81db c43c 1594 3a3d 5778 c7bc 7460 cd3b
00000210: 3994 3c3d a158 4ebb 29b5 163d a51b 0e3c
00000220: a3a1 c7bc c821 4a3d c3e6 c33b db67 253c
00000230: 444f 803b 8949 10bc 88d5 d53c 320f 0f3d
00000240: 4ef8 f5bc a8f8 28bc 79c5 453d b11f 9abc
00000250: 8035 b6b9 8419 3abc 9cda 3ebc da0c 2c3d
00000260: d249 d73c 2fb2 28bb 7b6b 213d b618 51bc
00000270: 4289 9abc 0c18 513c 0fac d03b a68c 043d
00000280: 2fbe af3c 8fb1 0abc c899 863c b055 e43c
00000290: 9012 983b ee85 bfbc 6079 9f3b df4a e43c
000002a0: 3072 8dbc a45f 283d 49d1 8cbc 0d51 e0bb
000002b0: 5296 233c fbc4 5f3c 8162 efbb 012b b33b
000002c0: 1c25 c6bc 5173 25bb 586e f4bb b98a fe3c
000002d0: 8ffb d03c 2734 4ebc 1350 2f3d 2ac1 363a
000002e0: 95a4 943b 24ae 4abc 136d 03bd 07b4 f13c
000002f0: 65db e8bc 4628 a93c 937d 2a3d 931e 053d
00000300: b903 f73b 860a 343d 9ed5 463d ff5c 033d
00000310: 16e8 44bb 10de cfbc 7d20 56bc 82fd 2e3d
00000320: 3d3d 213d 6809 bbba c0b3 b9bb e3aa babc
00000330: ee75 1b3d 3ec8 9f3c 4eb5 043d f358 613c
00000340: 3908 3c3d 8986 89bc f89b 9c3c 87d6 ba3c
00000350: 3d1a e43c ba1c 08bd a3ae 803c 60e2 7e3c
00000360: 239d ddbc 7b2e c73b 3870 0abd 8e82 d93c
00000370: f0d4 a7bc 2195 6a3c 58e5 dbbc 521e ec3c
00000380: b677 6cbc afe4 b13c d877 76bb 61bd c1bc
00000390: 89a1 78bc afb2 3b3d ef9c 8f3c b3dd f23c
000003a0: b16c 63bc 55ab ecbc ffc4 09bc bb27 8bbc
000003b0: 0a1e 0c3d a73e 3d3c f4ef dbbc 806d 8a3c
000003c0: 4b73 293c 14ea c33b 39db febc 4730 f43c
000003d0: 5f78 293d a44d 6a3c 6760 e73b 6f02 bbba
000003e0: 79db 8f3c c3f1 cdbb 9a66 303d 8fec c33b
000003f0: f304 7f3c 39e1 0fbc 67da f8bc 230c 39bc
0.008440784 -0.004477064 0.043860257 0.010978989 0.0040447377 0.024693413 -0.028168263 0.02214073
-0.025043337 0.016347855 -0.013038667 -0.015941162 0.023914024 0.029033672 0.0003315509 0.026637958
0.027647194 -0.025019275 0.021309868 -0.0023294515 0.0062710503 -0.017345244 0.022021627 -0.0037989102
-0.026768224 -0.009551513 0.01270397 0.008791853 0.023179406 -0.02003647 -0.010997751 0.0036703488
-0.017551124 -0.004376508 -0.016144175 -0.010961318 -0.0038629444 -0.023737902 -0.01936328 -0.022797978
-0.0038694504 -0.01765092 0.0005596606 -0.0037516213 -0.017703183 0.008714972 0.0058000074 -0.03242778
-0.011906931 -0.0028266055 -0.029690782 -0.012043193 0.028803006 -0.0026106976 -0.0026638114 -0.017595459
-0.0143557675 -0.004634102 0.05021329 0.008532729 -0.019171 -0.022870123 0.02314121 0.044634234
0.006017821 -0.034038093 0.013514705 0.018980986 0.0064416253 -0.031489223 0.042293146 -0.002411357
0.02524469 0.047662128 -0.02421512 -0.0077013173 -0.01670467 0.049232792 -0.02989737 0.0027698718
-0.013333583 0.0025215938 0.0049518463 0.03461946 -0.020733336 0.048586152 0.04403242 -0.0044951215
0.013064027 -0.01738287 -0.009786047 -0.008907604 0.025003182 -0.00096877845 0.04185928 0.03765938
-0.00051944755 -0.027974077 -0.028118059 -0.013062548 0.0024620572 0.026796728 0.048400432 0.044693187
-0.017592654 -0.023251083 0.02415079 0.021063616 0.011849186 -0.022079555 0.011879286 -0.005147115
0.03867807 -0.013287706 -0.024116587 -0.017747447 -0.030211058 0.048379928 0.0073132263 0.042262007
-0.02474646 0.022303987 0.013826713 -0.024399335 0.02242126 -0.02165151 0.02756017 0.023961661
0.024030449 0.04555138 -0.024349375 0.0062676016 0.046039794 -0.0031485932 0.03679386 0.008673583
-0.024369067 0.049348623 0.0059784367 0.010095562 0.003915699 -0.008806595 0.026102796 0.0349266
-0.030025627 -0.0103131905 0.048284028 -0.01881394 -0.00034753606 -0.011358622 -0.0116488 0.042004444
0.026280317 -0.0025740971 0.039409142 -0.012762239 -0.018864278 0.012762081 0.006368167 0.032360695
0.021452991 -0.008465185 0.01643075 0.02787289 0.0046408847 -0.023379292 0.004866764 0.027867733
-0.017266363 0.041106835 -0.017189639 -0.0068455995 0.00998457 0.013657804 -0.0073054438 0.005467773
-0.024187617 -0.0025245736 -0.007459443 0.031072007 0.025510577 -0.012585676 0.042800974 0.0006971533
0.0045362213 -0.01237062 -0.032086443 0.029504789 -0.028424928 0.020649087 0.041623663 0.03249986
0.0075382856 0.04395535 0.048543565 0.03207111 -0.003004556 -0.025374442 -0.013069269 0.042722233
0.039365042 -0.0014269771 -0.00566718 -0.022786563 0.037954263 0.019504663 0.032399468 0.013754117
0.04590628 -0.016787784 0.01911734 0.022807373 0.027844543 -0.03323052 0.015708273 0.015556902
-0.027052468 0.006078539 -0.033798426 0.026551511 -0.020487279 0.014317782 -0.026842758 0.028823052
-0.014432838 0.02171549 -0.0037608054 -0.023649873 -0.015175232 0.045824703 0.017530886 0.02964673
-0.0138808945 -0.028890291 -0.008408784 -0.016986718 0.034208335 0.011550582 -0.026847817 0.016897917
0.010342429 0.005978832 -0.031110393 0.029808177 0.04137456 0.0143007375 0.0070610526 -0.0014267693
0.017560707 -0.0062849238 0.0430666 0.0059791277 0.015565145 -0.008781725 -0.03037758 -0.0112943975

conv2.bias f4 [64]
00000000: ee97 fabc e571 1a3c d029 863c 0b4e a33c
00000010: bb92 a93c df6a 353c d7e3 313d 91e9 263d
00000020: a492 60bc dfc8 ff3c 2bbe 25bc 3617 dd3c
00000030: c616 8fbc 9eac 0b3d e850 4b3c 4bd9 013c
00000040: a2af 093d 92ca 9cbc 2829 e33b 9aa1 acbb
00000050: 9c19 5cbb 5616 1c3d 4e7f 6abc 564d 9dbc
00000060: cf04 313d d1d2 893c 022b 173d fcf1 f23a
00000070: 3c8b 023d 6b58 313d 6213 023d 54ea 193d
00000080: 6897 fd3c 8eba 3f3c a7e6 283c 0384 1b3d
00000090: 2ad4 c83c 270e 60bc 0327 8c3b 88c6 e33c
000000a0: f692 c3bc 8b54 ce3c e25c 8dbc f04f b9bc
000000b0: 9f07 853b f95f 3a3d fe46 29bc 5856 a63b
000000c0: cd16 693c d095 4abc 66ad c5bc 6fc9 453c
000000d0: f36e 1a3d 8c06 9cba 0164 a5bc 3f45 3f3d
000000e0: 2023 2f3d 5722 30bc dcf0 d8bb 4a31 433d
000000f0: 6ad0 e5ba 021c c93c bd39 013c 7f1e 943c
-0.030590024 0.009426569 0.01637736 0.019934675 0.02069985 0.011072843 0.043430176 0.04075009
-0.013706837 0.031223712 -0.01011614 0.026988607 -0.017466914 0.034100167 0.012409426 0.007925342
0.033614762 -0.019139562 0.0069323964 -0.005268288 -0.00335846 0.03810724 -0.014312578 -0.019201916
0.043217476 0.016824158 0.03690625 0.0018535252 0.031871065 0.043297213 0.031756766 0.03757699
0.030955985 0.011702193 0.010308898 0.037967693 0.02451523 -0.013675249 0.0042771115 0.027804628
-0.023873787 0.025186798 -0.017256204 -0.022621125 0.0040597464 0.045501683 -0.010331867 0.005076211
0.014226628 -0.01236482 -0.024130534 0.012071951 0.037703466 -0.0011903807 -0.020189287 0.046696898
0.042758107 -0.010750375 -0.0066205095 0.047654428 -0.0017533426 0.024549488 0.007887301 0.018080948

upsample.weight f4 [64, 64, 4, 4]
00000000: ff1c 5f3d 0711 a6bc fa90 b63c 6d01 f63c
00000010: 92a7 3e3d 3cea 143d 15df 993d 1069 fe3c
00000020: 5e70 1b3d c4b6 ce3c 098a d43c 6fbb 2ebc
00000030: ee57 583d 292a 733d 6c6c 073d 4295 e73c
00000040: 9765 95bc 3ef7 ac3c e5e6 c1bc 3d7c 423b
00000050: 2cd5 c73b 0c01 7ebb 3f94 0d3d 7eae 7d3c
00000060: cad1 e23c 3199 b6bb 012f a63b 0e10 09bc
00000070: 3d13 bdbc 841e 0f3d 5e0a e43a bc99 97bc
00000080: f755 133c 0a18 003d b5d1 633c 54fe c33c
00000090: d1e3 11bb 6c93 603b b2c2 1ebc 797a 7f3c
000000a0: 3bdd 183d 851c 273a 57b9 953d 9169 823a
000000b0: f410 ff3b c615 b13c e30d 27bc 7ca9 243d
000000c0: bdb0 883c 531d 62bc caf0 d73a 5b53 113d
000000d0: 38f6 773c 50b6 753c 9e8c 77bc edbd 903c
000000e0: 84da fd3b 05b8 8a3c 5eee 113c 3e07 913c
000000f0: 826d 7fbc d387 9abc 3597 c03c 9832 603c
00000100: 358a 23bc 57b2 8ebb 1155 a8bb 26e7 173d
00000110: 37c5 4e3c 4528 bebc cc64 ccbc fecf 70b8
00000120: e491 f9bb 3417 8c3c 681c 48bc 15a8 353b
00000130: 382a e0bc 8b01 14bc 2636 2b3c 97a8 aebc
00000140: 560d c53d 12f8 1c3e 6b70 883d 40bb b13d
00000150: 07e9 543d b1bc b33d dbe8 893c f456 643d
00000160: 8ef2 c53d 1e8c 293e adf6 e23d 450b 113e
00000170: bd3e 9c3c f298 f73d f57a 7e3c 965d 943d
00000180: 1a2f 963c 795a bbbc 3334 dc3b aff1 323c
00000190: d9cb b53c b895 d6bb 7653 383c 8253 143d
000001a0: 1827 e93b 1d98 e2bb 443e c5bc 85d9 863c
000001b0: cb93 2c3c cd9a 003d e28c 41bc a5b4 d23c
000001c0: c0ca 193d 0233 183d d58b 813c 0bd4 b6bc
000001d0: 51d4 173b 8300 36ba 7f70 e93c acf2 94bc
000001e0: cb98 adbc c97c 233c c496 49bb 5d33 a33b
000001f0: 2ab9 443c c5e6 e83c e26f 2c3c 1e70 2e3c
00000200: 556a 4cba 0926 76bc 9a82 64b9 84e7 ba3b
00000210: 6c8c 2bbc 2d1a a63c c5fa 51bb 5565 753b
00000220: 6f02 ad3c 4a97 553b 9038 2cbc bbe6 ffbc
00000230: 24b0 b03b 954a 46bc 23e4 243c 5082 943c
00000240: 2e1e b5bc 4dd6 013d efef acbc 5b73 f73b
00000250: 9612 4abc b92d ef3c a7d2 eb3c d7fb ebbb
00000260: 29f3 88bc 8b61 e73c a605 4f3c 46ea 56bc
00000270: 98d6 853c ef09 c0b9 5546 a13c f00f c03a
00000280: a7be 173d 678b 373c 4290 7abc 27cb 2b3c
00000290: c828 083d c123 4f3c cd0b e63c 8824 c2bc
000002a0: ddb1 143d c2d8 303c 413b e7bb 22aa 09bc
000002b0: 9e0f 21bc 76d8 3d3c 3ea4 603c e2e9 b63c
000002c0: 114b 84ba baff ac3c eadf 073c e730 c83c
000002d0: cd3c bebc d15f 253c 685f b8bb b882 daba
000002e0: 8bca f9bc b11c d93c a5ef 4f3b 7545 963b
000002f0: 8eb6 64bc 384b cbbc b920 c43b 61df 703c
00000300: 51ad 8abb 2286 1b3c 56ab dbbb c9ec 1d3c
00000310: 70c0 88bc 0f3a 48bb 3cf9 983b b2d7 adbb
00000320: 76b2 253c 967c 5d3b 3b3d e3bc d41f 6c3b
00000330: 980f b93a 8c7a d93b bb35 85bc 0311 9cbc
00000340: 6648 943a 6c96 89bc a7d1 bdbb 2508 c63c
00000350: 5a92 f33c 8d64 ab3c 3da9 98bb 1108 503c
00000360: 3774 e63c 3e70 903c e80f e63b 56b6 853c
00000370: dcb9 0e3d 407f 9fbc ab28 c13c 35bf 3f3c
00000380: dc1d 1fbc 5fb0 c13c c45e e83c 1206 5dbc
00000390: 728e d7bc 2c20 04bd ec7e 1c3c 4bd1 003c
000003a0: 4a96 f5bc bd9e b73c cd4f a5bc 08c5 aa3c
000003b0: 49a5 5d3c 45d2 02bd a06f bebc e6ef dbbc
000003c0: 20a8 a9bc ca13 d83c df8a 673c aa95 133d
000003d0: 4a99 853c ab0b 1f3d baff 5dbc 9055 65bc
000003e0: caf9 9abc a88f c53c 8b08 1b3d 37ec d0bb
000003f0: 22a5 893c 4dd1 173d e095 c3ba cea6 c3bc
0.054471012 -0.020271791 0.022285927 0.030029977 0.046546526 0.036356196 0.07513253 0.031055957
0.03794896 0.025233634 0.025944727 -0.010664805 0.05281823 0.05936638 0.033062384 0.028269414
-0.018236918 0.021113988 -0.02366967 0.0029676103 0.00609841 -0.0038757948 0.034565207 0.015483497
0.027687926 -0.005572461 0.0050715213 -0.008365644 -0.023080463 0.03494121 0.0017398109 -0.018505923
0.008992664 0.031272925 0.0139049785 0.023924984 -0.0022261033 0.0034267558 -0.009689974 0.015593165
0.037320357 0.0006374794 0.073107414 0.0009949674 0.0077840034 0.021616828 -0.010196182 0.040200695
0.016685838 -0.013800937 0.0016474959 0.035479885 0.015134387 0.01499708 -0.015109209 0.017668689
0.0077469964 0.01693345 0.008906929 0.017703649 -0.015590074 -0.018863594 0.023509601 0.0136839375
-0.009981682 -0.004354756 -0.005137094 0.037085675 0.012620262 -0.023212561 -0.024950407 -5.7414167e-05
-0.0076162685 0.017100908 -0.012213804 0.0027718593 -0.027363881 -0.009033571 0.010449922 -0.021320624
0.09621684 0.15329006 0.06662067 0.08678293 0.051980045 0.087762244 0.016834667 0.055746987
0.09665404 0.16557357 0.11082206 0.14164455 0.019072885 0.12089719 0.015532245 0.072444126
0.018333007 -0.02287029 0.00672009 0.01092188 0.022191929 -0.0065486096 0.011250367 0.03621245
0.007115256 -0.006915106 -0.024077542 0.016461143 0.010533283 0.03139763 -0.011813374 0.025720904
0.037546873 0.03715802 0.015813747 -0.022317907 0.0023167322 -0.0006942825 0.028496025 -0.018182121
-0.021191021 0.009978482 -0.003076003 0.004980488 0.012007037 0.028430352 0.010524722 0.010646848
-0.0007797827 -0.015023717 -0.00021792427 0.0057038683 -0.010470491 0.020276153 -0.003204034 0.0037444432
0.021119324 0.0032591396 -0.010511532 -0.03123795 0.0053920913 -0.012102743 0.010064158 0.018128544
-0.022109117 0.031698514 -0.021110503 0.0075515932 -0.012333533 0.029196607 0.02878697 -0.0072016525
-0.01671751 0.028244754 0.012635624 -0.013117379 0.016337678 -0.00036628495 0.019686857 0.0014653187
0.037047055 0.01120267 -0.015293183 0.010485447 0.033242017 0.012642802 0.028081799 -0.02369906
0.036302436 0.010793867 -0.007056624 -0.008402379 -0.009830384 0.011587253 0.013711033 0.02232832
-0.0010093172 0.021118034 0.008293131 0.024437381 -0.023222351 0.010093645 -0.0056266077 -0.0016671037
-0.030492088 0.026502939 0.0031728533 0.0045859166 -0.01395954 -0.02481614 0.005985346 0.014701695
-0.0042320867 0.009492429 -0.0067037744 0.0096389735 -0.016693324 -0.0030552184 0.004668383 -0.005305254
0.010113349 0.0033796183 -0.027739158 0.0036029713 0.0014119027 0.006636923 -0.016260972 -0.01905108
0.001131308 -0.01679536 -0.005792815 0.024173805 0.029732872 0.02092197 -0.0046588467 0.012697236
0.028131587 0.017631646 0.007020939 0.016322296 0.034845218 -0.019469857 0.023578962 0.011703302
-0.009711709 0.02364367 0.0283655 -0.013490217 -0.02631304 -0.032257244 0.009551745 0.007862399
-0.02997889 0.02241456 -0.020179654 0.020845905 0.013528177 -0.03193881 -0.023246586 -0.02684779
-0.020710051 0.026376624 0.014132231 0.036031403 0.016308445 0.038829487 -0.0135497395 -0.0139974505
-0.018917937 0.024116352 0.037849944 -0.0063758153 0.016802374 0.03706484 -0.0014921986 -0.02388325

upsample.bias f4 [64]
00000000: bb26 4d3c be2a b33b fe2a 9ebc c9bb b33c
00000010: 8a79 833c 4466 cd3d 1a34 aabb 2942 113d
00000020: a27d cb3c b95b 583c bf36 063d 523d 04bd
00000030: 0d31 adbc 8499 d13b 508d d63c 157b 9b3c
00000040: be17 feba 3dd5 173c dea3 773c 7d6d 88bc
00000050: 2760 1a3c 2fc9 e5bb e4f2 fc3c ad2e 6e3c
00000060: eefd 263b 5bd5 ee3c 2ef3 e83c a674 663c
00000070: fee2 b13b 8feb d23c 92af 89bb fa88 a13a
00000080: 4ab3 403a 37cb 4fbc e152 ecbc 0907 943c
00000090: 7b0c 23bc e21e c33c 08ca f33c f7f9 92bc
000000a0: 864e 123d 3685 a63c 83dc dd3c c3ad 753c
000000b0: df14 e63b c878 763b 89f2 9cbb 2534 56bc
000000c0: 087a 043d 97c1 b9bc ae69 b13c b488 b03c
000000d0: b948 07bd 52ed f63b 0776 923b b472 a93c
000000e0: 3a37 95bb abbf bc3c f01e 69ba 38a4 c3bb
000000f0: 0469 c73b 3545 9fbc 338b 073d 90fd 6e3c
0.012521441 0.0054677418 -0.01930761 0.021940129 0.016049165 0.10029271 -0.0051941993 0.035463486
0.02484018 0.013205462 0.032767054 -0.032285042 -0.021141553 0.0063964743 0.02619043 0.018979589
-0.0019385738 0.009267149 0.015114753 -0.01665377 0.009422339 -0.0070125083 0.030877538 0.014537496
0.0025480944 0.02915447 0.02843627 0.014065897 0.005428671 0.025747089 -0.004201838 0.0012324147
0.0007350935 -0.012682728 -0.028848113 0.01806976 -0.009951706 0.023818437 0.029759422 -0.017941458
0.035719417 0.020327192 0.027082687 0.014995041 0.007021531 0.0037608612 -0.0047896546 -0.013073956
0.03234294 -0.022675319 0.021656837 0.02154956 -0.033028338 0.007535615 0.0044696364 0.020684578
-0.0045537027 0.023040613 -0.00088928547 -0.005970504 0.006085517 -0.01944218 0.033091735 0.014586821

conv3.weight f4 [1, 64, 3, 3]
00000000: 8864 4abd 64ed acbc e7ba d2bc 6192 7a3b
00000010: 6957 55bd ec5b 9cbd cae6 85bd 360f 4ebc
00000020: 711e 0dbd ab80 c3bc c0ec 7f3c 4975 24bd
00000030: 3a7f 8fbc 27f0 8f3c c765 09bd e1d2 b3bc
00000040: 6986 cabc 069d ef3c 8e52 01bd d044 fdbc
00000050: 8b82 2bbc f432 69bc e066 23bd b7f5 c63b
00000060: 07e5 1cbd 3cf5 8fbb bdfe 9a3c 6171 65bc
00000070: ff40 45bc b471 3cbb 4b84 0b3d c20c f2bc
00000080: 68fc 32bd cf1b fbbc f4f6 31bd 49a5 e73b
00000090: 300f 26bd 8720 063d 29b6 7f3c 323c 26bd
000000a0: c853 1e3c 4407 a73b 4b29 bd3b d9db 2cbd
000000b0: 5e54 78bc c479 b8bd de94 02be 54a2 8abd
000000c0: 6811 09be 2c3e c4bd e7db bebd c7f6 e5bd
000000d0: 8602 b9bd e69a 93bd cf99 9a3c bfbb 10bd
000000e0: f4ad e2bc 6ee3 08bd c1c3 26bd 0d49 0c3c
000000f0: 1a87 ebbb 6e52 e83c 1fa7 d73b e96d 63bc
00000100: 794f 1dbd c286 38bd 5d9e 2abd 89e5 38bd
00000110: c351 003d ad70 28bd 32d4 e33c c40c 1f3b
00000120: a37a 0fbd 54ac 17bc f808 9d3c e06f 1c3d
00000130: d524 043c 0663 23bd 5790 96bb c868 063c
00000140: 37f0 db3c 2b31 833a ba48 8d3c 8088 e7bc
00000150: c845 cfbc e072 b8bc 25c1 363c 19d3 a3bc
00000160: 040d 03bd c1a8 8f3c c25a 29bd 7569 04bd
00000170: 5277 9bbc 2da5 913c a36d 8cbc 237a 54bc
00000180: 5295 093d b3a5 eb3c 3d57 11bd 725c b2bc
00000190: 1948 cb3c 561b 0bbd fd80 f63b 4483 7d3a
000001a0: d2ac 053d af23 06bd aea1 d63c 25f5 f5bb
000001b0: f264 e03c 3bb5 59bd 7f1f b63b eaba 293c
000001c0: 5061 9ebb 28f3 cc3c 7034 d0bc 837b 82bc
000001d0: a4fd 8d3a 879b 533c 1388 b6ba 6598 26bd
000001e0: 8815 0abc 60d8 9e3c c27b 21bd 136a 1bbd
000001f0: 5fa8 75bc 1c37 093b dc0a 4bbc b40f 493c
00000200: b27c cdbc 0911 49bc 4d02 dd3c 6385 043d
00000210: dfbf 1cbc e681 e53c 3ebb a83b 11bb 923c
00000220: 6095 953b 4179 493c e5a8 cc3c 7691 38bd
00000230: 9951 36bd d91e ecbc 5cb1 0dbd c2d8 fe3b
00000240: a508 d73c 811b ecbc 06c3 d0bc 9d75 c739
00000250: d34d d2bb cb14 c8bc a4e0 3fbd 0dff 48bd
00000260: 0d17 bd3c 181b 02bd b18e 8e3c 131e 2dbd
00000270: addc 86bc 962b 7dbb 8978 f4bc 0e95 03bd
00000280: 5313 1fbd f4c6 18bd 3515 19bd 2b39 953c
00000290: d932 08bd d4a9 d23b c43f 053d 0363 8dbc
000002a0: 0e96 9d3c b607 2dbd 0df5 0fbd a121 cfbc
000002b0: 9f91 2c3c 7b98 1abc abcc be3a 2778 82bc
000002c0: 44ea 21bd 93d7 033d fa34 01bd 1722 f4bc
000002d0: 7227 b7bb 0d3d a73c e827 4d3c 14db 823c
000002e0: 2ac1 31bc 018f 453b 6113 debc f29b d13c
000002f0: b45d 65bc 5002 2abd 8410 9a3c 7c61 dabc
00000300: e525 22bd a25b 07bc 3bad 923b 8783 d23c
00000310: 7357 c7bc 3ee9 8dbc 48e3 dcbc 79b6 933c
00000320: 245e a53c a3d3 c53c b0f7 f83c 2b76 37bd
00000330: af15 35bd b71e 89bc 0580 d6bc 5ff4 3dbc
00000340: a190 43bc dfcf 82bc c9e7 a93c 5b34 0abc
00000350: 837b f03b de0f 41bd 2434 cbbc f94b bebc
00000360: 2dea 0ebd b22f dab9 4689 37bd e851 29bc
00000370: b072 24bd 98ad 04bc 3f55 43bd e1c4 5dbc
00000380: f548 9fbc f04e 39bd eacf a53c bc72 60bb
00000390: 1d19 28bd 391c f6bb 2f8d c7bc 2e2a 14bc
000003a0: cf42 a7bc bfe8 31bd 6bb8 d93c 0e23 f7bc
000003b0: 5b97 76bc daad 1cbb d156 bebc 0174 3cbd
000003c0: 96b6 903c 48f0 42bd b423 3dbd 6b69 653c
000003d0: 91b1 de3c fe99 d7bc e40c 9fbb 23d7 c33c
000003e0: 200d b3bb a7a8 c73c 5eb5 1d3d a302 87bb
000003f0: 562a 3abc 0ff2 ae3c 742c 3c3c cb54 813c
-0.04941228 -0.02110929 -0.025723888 0.0038234221 -0.052085314 -0.0763472 -0.0653816 -0.012576869
-0.03445286 -0.023865065 0.01562041 -0.040150914 -0.017516721 0.017570568 -0.033544328 -0.02195114
-0.024722295 0.02924968 -0.03157287 -0.030916601 -0.010468136 -0.01423334 -0.03989303 0.006071772
-0.038304355 -0.004393248 0.018920297 -0.014004082 -0.012039422 -0.0028754296 0.03406171 -0.029547099
-0.043697745 -0.030652909 -0.043448403 0.007069264 -0.040541828 0.032745864 0.015607395 -0.04058475
0.00966353 0.0050973017 0.005772745 -0.04220185 -0.015156833 -0.090076 -0.12752101 -0.06769243
-0.13385546 -0.09582171 -0.09319287 -0.1122871 -0.090336844 -0.07207279 0.01887217 -0.0353353
-0.027670838 -0.03342002 -0.04071403 0.008562339 -0.007187736 0.028359618 0.0065812017 -0.013881185
-0.03840587 -0.04505039 -0.041654933 -0.045140777 0.031327974 -0.04112308 0.027811144 0.0024269084
-0.035029065 -0.009257395 0.019169316 0.03819263 0.008065422 -0.039889358 -0.0045948434 0.008203693
0.026847942 0.001000916 0.017246593 -0.02826333 -0.025301829 -0.022515714 0.011154448 -0.01999812
-0.031994835 0.017536523 -0.04134632 -0.032327134 -0.018977795 0.017778957 -0.017142123 -0.012968573
0.03358967 0.028765535 -0.035483588 -0.021772597 0.024814652 -0.033961616 0.007522701 0.0009670744
0.032635517 -0.032748874 0.026200142 -0.00750603 0.027391884 -0.05315135 0.005557954 0.010359505
-0.004833378 0.02501829 -0.02541563 -0.015928036 0.0010833037 0.012915499 -0.0013926051 -0.04067268
-0.008427985 0.019390285 -0.039424665 -0.037942957 -0.014993756 0.0020937389 -0.012392726 0.01227181
-0.025083873 -0.012272128 0.026978636 0.03235377 -0.00956723 0.028016042 0.005149274 0.017911466
0.004564926 0.012296976 0.024982879 -0.045060597 -0.04451141 -0.028823303 -0.03459297 0.0077773044
0.02624924 -0.028821709 -0.02548362 0.00038043867 -0.006417969 -0.024423977 -0.046845093 -0.04907136
0.02308228 -0.03176412 0.017402025 -0.04226501 -0.016462648 -0.0038630716 -0.029842632 -0.03212457
-0.03883679 -0.03729911 -0.03737374 0.018215736 -0.033251617 0.0064289365 0.032531515 -0.017259127
0.01923659 -0.04224368 -0.035145808 -0.02528459 0.010532766 -0.009435768 0.0014556845 -0.015926434
-0.039530054 0.03218801 -0.031544663 -0.029801412 -0.005589419 0.020414853 0.012521721 0.015973605
-0.010849277 0.0030145051 -0.02710885 0.025587056 -0.013999391 -0.04150611 0.018806703 -0.026657812
-0.03958692 -0.008261593 0.004476217 0.025697483 -0.024333691 -0.017323133 -0.026963845 0.018031346
0.020186491 0.024148768 0.030391544 -0.044790428 -0.044210132 -0.016738279 -0.026184091 -0.011593907
-0.011936338 -0.015968261 0.020740407 -0.008435334 0.0073389425 -0.047134273 -0.024805136 -0.023229586
-0.034891296 -0.00041615736 -0.04480865 -0.010334469 -0.040148437 -0.008098029 -0.04768872 -0.013535709
-0.019443968 -0.045241296 0.020240743 -0.0034248075 -0.041039575 -0.0075106886 -0.024359314 -0.00904326
-0.020417599 -0.043434855 0.026577195 -0.030168083 -0.015050734 -0.0023907335 -0.023234757 -0.046009067
0.017665189 -0.04759243 -0.046176627 0.014002184 0.02718428 -0.026318546 -0.0048538316 0.023906296
-0.005464211 0.024372412 0.038503043 -0.0041201874 -0.011362633 0.021355657 0.011485208 0.015787503
